{"class_name": "Model", "config": {"name": "dec", "layers": [{"name": "dec_input", "class_name": "InputLayer", "config": {"batch_input_shape": [null, 5120], "dtype": "float32", "sparse": false, "name": "dec_input"}, "inbound_nodes": []}, {"name": "reshape_1", "class_name": "Reshape", "config": {"name": "reshape_1", "trainable": true, "target_shape": [256, 20]}, "inbound_nodes": [[["dec_input", 0, 0, {}]]]}, {"name": "lstm_1", "class_name": "LSTM", "config": {"name": "lstm_1", "trainable": true, "return_sequences": true, "return_state": false, "go_backwards": false, "stateful": false, "unroll": false, "units": 256, "activation": "tanh", "recurrent_activation": "hard_sigmoid", "use_bias": true, "kernel_initializer": {"class_name": "VarianceScaling", "config": {"scale": 1.0, "mode": "fan_avg", "distribution": "uniform", "seed": null}}, "recurrent_initializer": {"class_name": "Orthogonal", "config": {"gain": 1.0, "seed": null}}, "bias_initializer": {"class_name": "Zeros", "config": {}}, "unit_forget_bias": true, "kernel_regularizer": null, "recurrent_regularizer": null, "bias_regularizer": null, "activity_regularizer": null, "kernel_constraint": null, "recurrent_constraint": null, "bias_constraint": null, "dropout": 0.0, "recurrent_dropout": 0.0, "implementation": 1}, "inbound_nodes": [[["reshape_1", 0, 0, {}]]]}, {"name": "lstm_2", "class_name": "LSTM", "config": {"name": "lstm_2", "trainable": true, "return_sequences": true, "return_state": false, "go_backwards": false, "stateful": false, "unroll": false, "units": 128, "activation": "tanh", "recurrent_activation": "hard_sigmoid", "use_bias": true, "kernel_initializer": {"class_name": "VarianceScaling", "config": {"scale": 1.0, "mode": "fan_avg", "distribution": "uniform", "seed": null}}, "recurrent_initializer": {"class_name": "Orthogonal", "config": {"gain": 1.0, "seed": null}}, "bias_initializer": {"class_name": "Zeros", "config": {}}, "unit_forget_bias": true, "kernel_regularizer": null, "recurrent_regularizer": null, "bias_regularizer": null, "activity_regularizer": null, "kernel_constraint": null, "recurrent_constraint": null, "bias_constraint": null, "dropout": 0.0, "recurrent_dropout": 0.0, "implementation": 1}, "inbound_nodes": [[["lstm_1", 0, 0, {}]]]}, {"name": "time_distributed_1", "class_name": "TimeDistributed", "config": {"name": "time_distributed_1", "trainable": true, "layer": {"class_name": "Dense", "config": {"name": "dense_3", "trainable": true, "units": 28, "activation": "softmax", "use_bias": true, "kernel_initializer": {"class_name": "VarianceScaling", "config": {"scale": 1.0, "mode": "fan_avg", "distribution": "uniform", "seed": null}}, "bias_initializer": {"class_name": "Zeros", "config": {}}, "kernel_regularizer": null, "bias_regularizer": null, "activity_regularizer": null, "kernel_constraint": null, "bias_constraint": null}}}, "inbound_nodes": [[["lstm_2", 0, 0, {}]]]}, {"name": "time_distributed_2", "class_name": "TimeDistributed", "config": {"name": "time_distributed_2", "trainable": true, "layer": {"class_name": "Dense", "config": {"name": "dense_4", "trainable": true, "units": 28, "activation": "softmax", "use_bias": true, "kernel_initializer": {"class_name": "VarianceScaling", "config": {"scale": 1.0, "mode": "fan_avg", "distribution": "uniform", "seed": null}}, "bias_initializer": {"class_name": "Zeros", "config": {}}, "kernel_regularizer": null, "bias_regularizer": null, "activity_regularizer": null, "kernel_constraint": null, "bias_constraint": null}}}, "inbound_nodes": [[["lstm_2", 0, 0, {}]]]}, {"name": "time_distributed_3", "class_name": "TimeDistributed", "config": {"name": "time_distributed_3", "trainable": true, "layer": {"class_name": "Dense", "config": {"name": "dense_5", "trainable": true, "units": 1, "activation": "relu", "use_bias": true, "kernel_initializer": {"class_name": "VarianceScaling", "config": {"scale": 1.0, "mode": "fan_avg", "distribution": "uniform", "seed": null}}, "bias_initializer": {"class_name": "Zeros", "config": {}}, "kernel_regularizer": null, "bias_regularizer": null, "activity_regularizer": null, "kernel_constraint": null, "bias_constraint": null}}}, "inbound_nodes": [[["lstm_2", 0, 0, {}]]]}, {"name": "generate_image_1", "class_name": "GenerateImage", "config": {"name": "generate_image_1", "trainable": true, "n_x": 28, "n_y": 28, "n_pix": 256}, "inbound_nodes": [[["time_distributed_1", 0, 0, {}], ["time_distributed_2", 0, 0, {}], ["time_distributed_3", 0, 0, {}]]]}, {"name": "conv2d_transpose_1", "class_name": "Conv2DTranspose", "config": {"name": "conv2d_transpose_1", "trainable": true, "filters": 32, "kernel_size": [3, 3], "strides": [1, 1], "padding": "same", "data_format": "channels_last", "dilation_rate": [1, 1], "activation": "linear", "use_bias": true, "kernel_initializer": {"class_name": "VarianceScaling", "config": {"scale": 1.0, "mode": "fan_avg", "distribution": "uniform", "seed": null}}, "bias_initializer": {"class_name": "Zeros", "config": {}}, "kernel_regularizer": null, "bias_regularizer": null, "activity_regularizer": null, "kernel_constraint": null, "bias_constraint": null, "output_padding": null}, "inbound_nodes": [[["generate_image_1", 0, 0, {}]]]}, {"name": "leaky_re_lu_8", "class_name": "LeakyReLU", "config": {"name": "leaky_re_lu_8", "trainable": true, "alpha": 0.20000000298023224}, "inbound_nodes": [[["conv2d_transpose_1", 0, 0, {}]]]}, {"name": "conv2d_transpose_2", "class_name": "Conv2DTranspose", "config": {"name": "conv2d_transpose_2", "trainable": true, "filters": 32, "kernel_size": [3, 3], "strides": [1, 1], "padding": "same", "data_format": "channels_last", "dilation_rate": [1, 1], "activation": "linear", "use_bias": true, "kernel_initializer": {"class_name": "VarianceScaling", "config": {"scale": 1.0, "mode": "fan_avg", "distribution": "uniform", "seed": null}}, "bias_initializer": {"class_name": "Zeros", "config": {}}, "kernel_regularizer": null, "bias_regularizer": null, "activity_regularizer": null, "kernel_constraint": null, "bias_constraint": null, "output_padding": null}, "inbound_nodes": [[["leaky_re_lu_8", 0, 0, {}]]]}, {"name": "leaky_re_lu_9", "class_name": "LeakyReLU", "config": {"name": "leaky_re_lu_9", "trainable": true, "alpha": 0.20000000298023224}, "inbound_nodes": [[["conv2d_transpose_2", 0, 0, {}]]]}, {"name": "conv2d_transpose_3", "class_name": "Conv2DTranspose", "config": {"name": "conv2d_transpose_3", "trainable": true, "filters": 16, "kernel_size": [3, 3], "strides": [1, 1], "padding": "same", "data_format": "channels_last", "dilation_rate": [1, 1], "activation": "linear", "use_bias": true, "kernel_initializer": {"class_name": "VarianceScaling", "config": {"scale": 1.0, "mode": "fan_avg", "distribution": "uniform", "seed": null}}, "bias_initializer": {"class_name": "Zeros", "config": {}}, "kernel_regularizer": null, "bias_regularizer": null, "activity_regularizer": null, "kernel_constraint": null, "bias_constraint": null, "output_padding": null}, "inbound_nodes": [[["leaky_re_lu_9", 0, 0, {}]]]}, {"name": "leaky_re_lu_10", "class_name": "LeakyReLU", "config": {"name": "leaky_re_lu_10", "trainable": true, "alpha": 0.20000000298023224}, "inbound_nodes": [[["conv2d_transpose_3", 0, 0, {}]]]}, {"name": "conv2d_transpose_4", "class_name": "Conv2DTranspose", "config": {"name": "conv2d_transpose_4", "trainable": true, "filters": 16, "kernel_size": [3, 3], "strides": [1, 1], "padding": "same", "data_format": "channels_last", "dilation_rate": [1, 1], "activation": "linear", "use_bias": true, "kernel_initializer": {"class_name": "VarianceScaling", "config": {"scale": 1.0, "mode": "fan_avg", "distribution": "uniform", "seed": null}}, "bias_initializer": {"class_name": "Zeros", "config": {}}, "kernel_regularizer": null, "bias_regularizer": null, "activity_regularizer": null, "kernel_constraint": null, "bias_constraint": null, "output_padding": null}, "inbound_nodes": [[["leaky_re_lu_10", 0, 0, {}]]]}, {"name": "leaky_re_lu_11", "class_name": "LeakyReLU", "config": {"name": "leaky_re_lu_11", "trainable": true, "alpha": 0.20000000298023224}, "inbound_nodes": [[["conv2d_transpose_4", 0, 0, {}]]]}, {"name": "conv2d_transpose_5", "class_name": "Conv2DTranspose", "config": {"name": "conv2d_transpose_5", "trainable": true, "filters": 8, "kernel_size": [3, 3], "strides": [1, 1], "padding": "same", "data_format": "channels_last", "dilation_rate": [1, 1], "activation": "linear", "use_bias": true, "kernel_initializer": {"class_name": "VarianceScaling", "config": {"scale": 1.0, "mode": "fan_avg", "distribution": "uniform", "seed": null}}, "bias_initializer": {"class_name": "Zeros", "config": {}}, "kernel_regularizer": null, "bias_regularizer": null, "activity_regularizer": null, "kernel_constraint": null, "bias_constraint": null, "output_padding": null}, "inbound_nodes": [[["leaky_re_lu_11", 0, 0, {}]]]}, {"name": "leaky_re_lu_12", "class_name": "LeakyReLU", "config": {"name": "leaky_re_lu_12", "trainable": true, "alpha": 0.20000000298023224}, "inbound_nodes": [[["conv2d_transpose_5", 0, 0, {}]]]}, {"name": "conv2d_transpose_6", "class_name": "Conv2DTranspose", "config": {"name": "conv2d_transpose_6", "trainable": true, "filters": 1, "kernel_size": [3, 3], "strides": [1, 1], "padding": "same", "data_format": "channels_last", "dilation_rate": [1, 1], "activation": "linear", "use_bias": true, "kernel_initializer": {"class_name": "VarianceScaling", "config": {"scale": 1.0, "mode": "fan_avg", "distribution": "uniform", "seed": null}}, "bias_initializer": {"class_name": "Zeros", "config": {}}, "kernel_regularizer": null, "bias_regularizer": null, "activity_regularizer": null, "kernel_constraint": null, "bias_constraint": null, "output_padding": null}, "inbound_nodes": [[["leaky_re_lu_12", 0, 0, {}]]]}, {"name": "re_lu_1", "class_name": "ReLU", "config": {"name": "re_lu_1", "trainable": true, "max_value": null, "negative_slope": 0.0, "threshold": 0.0}, "inbound_nodes": [[["conv2d_transpose_6", 0, 0, {}]]]}], "input_layers": [["dec_input", 0, 0]], "output_layers": [["re_lu_1", 0, 0]]}, "keras_version": "2.2.4", "backend": "tensorflow"}